…
Epoch 5, 50% 	 train_loss: 0.95 train_acc: 0.72 took: 1.29s
Epoch 5, 60% 	 train_loss: 1.01 train_acc: 0.66 took: 1.41s
Epoch 5, 70% 	 train_loss: 0.93 train_acc: 0.66 took: 1.39s
Epoch 5, 80% 	 train_loss: 0.98 train_acc: 0.59 took: 1.32s
Epoch 5, 90% 	 train_loss: 0.99 train_acc: 0.75 took: 1.30s
Validation loss = 1.16 Validation acc = 0.75
Training finished, took 73.58s
----------------------------------------------------------------
        Layer (type)               Output Shape         Param #
================================================================
            Conv2d-1           [-1, 18, 32, 32]             504
         MaxPool2d-2           [-1, 18, 16, 16]               0
            Conv2d-3           [-1, 18, 16, 16]           2,934
         MaxPool2d-4             [-1, 18, 9, 9]               0
            Linear-5                   [-1, 64]          93,376
            Linear-6                   [-1, 10]             650
================================================================
Total params: 97,464
Trainable params: 97,464
Non-trainable params: 0
----------------------------------------------------------------
Input size (MB): 0.01
Forward/backward pass size (MB): 0.22
Params size (MB): 0.37
Estimated Total Size (MB): 0.61
----------------------------------------------------------------
===== HYPERPARAMETERS =====
…
Epoch 5, 50% 	 train_loss: 1.05 train_acc: 0.69 took: 1.25s
Epoch 5, 60% 	 train_loss: 1.00 train_acc: 0.56 took: 1.36s
Epoch 5, 70% 	 train_loss: 1.03 train_acc: 0.59 took: 1.50s
Epoch 5, 80% 	 train_loss: 1.01 train_acc: 0.75 took: 1.61s
Epoch 5, 90% 	 train_loss: 1.07 train_acc: 0.72 took: 1.30s
Validation loss = 1.07 Validation acc = 0.56
Training finished, took 74.18s
----------------------------------------------------------------
        Layer (type)               Output Shape         Param #
================================================================
            Conv2d-1           [-1, 18, 32, 32]             504
         MaxPool2d-2           [-1, 18, 16, 16]               0
            Conv2d-3           [-1, 18, 16, 16]           2,934
         MaxPool2d-4             [-1, 18, 9, 9]               0
            Conv2d-5             [-1, 18, 9, 9]           2,934
         MaxPool2d-6             [-1, 18, 3, 3]               0
            Linear-7                   [-1, 64]          10,432
            Linear-8                   [-1, 10]             650
================================================================
Total params: 17,454
Trainable params: 17,454
Non-trainable params: 0
----------------------------------------------------------------
Input size (MB): 0.01
Forward/backward pass size (MB): 0.23
Params size (MB): 0.07
Estimated Total Size (MB): 0.31
----------------------------------------------------------------
===== HYPERPARAMETERS =====
…
