
Model Setup:  
----------------------------------------------------------------
        Layer (type)               Output Shape         Param #
================================================================
            Conv2d-1            [-1, 1, 28, 28]              76
         MaxPool2d-2            [-1, 1, 14, 14]               0
            Conv2d-3           [-1, 16, 10, 10]             416
         MaxPool2d-4             [-1, 16, 5, 5]               0
            Conv2d-5            [-1, 120, 1, 1]          48,120
            Linear-6                   [-1, 84]          10,164
            Linear-7                   [-1, 10]             850
================================================================
Total params: 59,626
Trainable params: 59,626
Non-trainable params: 0
----------------------------------------------------------------
Input size (MB): 0.01
Forward/backward pass size (MB): 0.02
Params size (MB): 0.23
Estimated Total Size (MB): 0.26
----------------------------------------------------------------
Training omitted
tensor([[[[ … )


Expanded Model Dimensions:
----------------------------------------------------------------
        Layer (type)               Output Shape         Param #
================================================================
            Conv2d-1            [-1, 2, 28, 28]             152
         MaxPool2d-2            [-1, 2, 14, 14]               0
            Conv2d-3           [-1, 18, 10, 10]             918
         MaxPool2d-4             [-1, 18, 5, 5]               0
            Conv2d-5            [-1, 124, 1, 1]          55,924
            Linear-6                   [-1, 84]          10,500
            Linear-7                   [-1, 10]             850
================================================================
Total params: 68,344
Trainable params: 68,344
Non-trainable params: 0
----------------------------------------------------------------
Input size (MB): 0.01
Forward/backward pass size (MB): 0.03
Params size (MB): 0.26
Estimated Total Size (MB): 0.31
----------------------------------------------------------------
tensor([[[[ … )
